…
oard_logdir='', threshold_loss_scale=None, train_subset='train', update_freq=[8], upsample_primary=1, user_dir='/thomas/Projects/nmt/tree_fairseq', valid_subset='valid', validate_interval=1, warmup_init_lr=1e-07, warmup_updates=4000, weight_decay=0.0)
| [en] dictionary: 32768 types
| [de] dictionary: 32768 types
| /thomas/Projects/nmt/data_fairseq/translate_ende_wmt16_bpe32k train 4500966 examples
| /thomas/Projects/nmt/data_fairseq/translate_ende_wmt16_bpe32k valid 3000 examples
LearnableGlobalLocalTransformerModel(
  (encoder): LearnableGlobalLocalTransformerEncoder(
    (embed_tokens): Embedding(32768, 512, padding_idx=1)
    (embed_positions): SinusoidalPositionalEmbedding()
    (layers): ModuleList(
      (0): LearnableGlobalLocalTransformerEncoderLayer(
        (self_attn): LearnableGlobalLocalMultiheadAttentionSelfAttention(
          (out_proj): Linear(in_features=512, out_features=512, bias=True)
        )
        (fc1): Linear(in_features=512, out_features=2048, bias=True)
        (fc2): Linear(in_features=2048, out_features=512, bias=True)
        (layer_norms): ModuleList(
          (0): FusedLayerNorm(torch.Size([512]), eps=1e-05, elementwise_affine=True)
          (1): FusedLayerNorm(torch.Size([512]), eps=1e-05, elementwise_affine=True)
        )
      )
      (1): LearnableGlobalLocalTransformerEncoderLayer(
        (self_attn): LearnableGlobalLocalMultiheadAttentionSelfAttention(
          (out_proj): Linear(in_features=512, out_features=512, bias=True)
        )
        (fc1): Linear(in_features=512, out_features=2048, bias=True)
        (fc2): Linear(in_features=2048, out_features=512, bias=True)
        (layer_norms): ModuleList(
          (0): FusedLayerNorm(torch.Size([512]), eps=1e-05, elementwise_affine=True)
          (1): FusedLayerNorm(torch.Size([512]), eps=1e-05, elementwise_affine=True)
        )
      )
      (2): LearnableGlobalLocalTransformerEncoderLayer(
        (self_attn): LearnableGlobalLocalMultiheadAttentionSelfAttention(
          (out_proj): Linear(in_features=512, out_features=512, bias=True)
        )
        (fc1): Linear(in_features=512, out_features=2048, bias=True)
        (fc2): Linear(in_features=2048, out_features=512, bias=True)
        (layer_norms): ModuleList(
          (0): FusedLayerNorm(torch.Size([512]), eps=1e-05, elementwise_affine=True)
          (1): FusedLayerNorm(torch.Size([512]), eps=1e-05, elementwise_affine=True)
        )
      )
      (3): LearnableGlobalLocalTransformerEncoderLayer(
        (self_attn): LearnableGlobalLocalMultiheadAttentionSelfAttention(
          (out_proj): Linear(in_features=512, out_features=512, bias=True)
        )
        (fc1): Linear(in_features=512, out_features=2048, bias=True)
        (fc2): Linear(in_features=2048, out_features=512, bias=True)
        (layer_norms): ModuleList(
          (0): FusedLayerNorm(torch.Size([512]), eps=1e-05, elementwise_affine=True)
          (1): FusedLayerNorm(torch.Size([512]), eps=1e-05, elementwise_affine=True)
        )
      )
      (4): LearnableGlobalLocalTransformerEncoderLayer(
        (self_attn): LearnableGlobalLocalMultiheadAttentionSelfAttention(
          (out_proj): Linear(in_features=512, out_features=512, bias=True)
        )
        (fc1): Linear(in_features=512, out_features=2048, bias=True)
        (fc2): Linear(in_features=2048, out_features=512, bias=True)
        (layer_norms): ModuleList(
          (0): FusedLayerNorm(torch.Size([512]), eps=1e-05, elementwise_affine=True)
          (1): FusedLayerNorm(torch.Size([512]), eps=1e-05, elementwise_affine=True)
        )
      )
      (5): LearnableGlobalLocalTransformerEncoderLayer(
        (self_attn): LearnableGlobalLocalMultiheadAttentionSelfAttention(
          (out_proj): Linear(in_features=512, out_features=512, bias=True)
        )
        (fc1): Linear(in_features=512, out_features=2048, bias=True)
        (fc2): Linear(in_features=2048, out_features=512, bias=True)
        (layer_norms): ModuleList(
          (0): FusedLayerNorm(torch.Size([512]), eps=1e-05, elementwise_affine=True)
          (1): FusedLayerNorm(torch.Size([512]), eps=1e-05, elementwise_affine=True)
        )
      )
    )
  )
  (decoder): LearnableGlobalLocalTransformerDecoder(
    (embed_tokens): Embedding(32768, 512, padding_idx=1)
    (embed_positions): SinusoidalPositionalEmbedding()
    (layers): ModuleList(
      (0): LearnableGlobalLocalTransformerDecoderLayer(
        (self_attn): LearnableGlobalLocalMultiheadAttentionDecoder(
          (out_proj): Linear(in_features=512, out_features=512, bias=True)
        )
        (self_attn_layer_norm): FusedLayerNorm(torch.Size([512]), eps=1e-05, elementwise_affine=True)
        (encoder_attn): LearnableGlobalLocalMultiheadAttentionSelfAttention(
          (out_proj): Linear(in_features=512, out_features=512, bias=True)
        )
        (encoder_attn_layer_norm): FusedLayerNorm(torch.Size([512]), eps=1e-05, elementwise_affine=True)
        (fc1): Linear(in_features=512, out_features=2048, bias=True)
        (fc2): Linear(in_features=2048, out_features=512, bias=True)
        (final_layer_norm): FusedLayerNorm(torch.Size([512]), eps=1e-05, elementwise_affine=True)
      )
      (1): LearnableGlobalLocalTransformerDecoderLayer(
        (self_attn): LearnableGlobalLocalMultiheadAttentionDecoder(
          (out_proj): Linear(in_features=512, out_features=512, bias=True)
        )
        (self_attn_layer_norm): FusedLayerNorm(torch.Size([512]), eps=1e-05, elementwise_affine=True)
        (encoder_attn): LearnableGlobalLocalMultiheadAttentionSelfAttention(
          (out_proj): Linear(in_features=512, out_features=512, bias=True)
        )
        (encoder_attn_layer_norm): FusedLayerNorm(torch.Size([512]), eps=1e-05, elementwise_affine=True)
        (fc1): Linear(in_features=512, out_features=2048, bias=True)
        (fc2): Linear(in_features=2048, out_features=512, bias=True)
        (final_layer_norm): FusedLayerNorm(torch.Size([512]), eps=1e-05, elementwise_affine=True)
      )
      (2): LearnableGlobalLocalTransformerDecoderLayer(
        (self_attn): LearnableGlobalLocalMultiheadAttentionDecoder(
          (out_proj): Linear(in_features=512, out_features=512, bias=True)
        )
        (self_attn_layer_norm): FusedLayerNorm(torch.Size([512]), eps=1e-05, elementwise_affine=True)
        (encoder_attn): LearnableGlobalLocalMultiheadAttentionSelfAttention(
          (out_proj): Linear(in_features=512, out_features=512, bias=True)
        )
        (encoder_attn_layer_norm): FusedLayerNorm(torch.Size([512]), eps=1e-05, elementwise_affine=True)
        (fc1): Linear(in_features=512, out_features=2048, bias=True)
        (fc2): Linear(in_features=2048, out_features=512, bias=True)
        (final_layer_norm): FusedLayerNorm(torch.Size([512]), eps=1e-05, elementwise_affine=True)
      )
      (3): LearnableGlobalLocalTransformerDecoderLayer(
        (self_attn): LearnableGlobalLocalMultiheadAttentionDecoder(
          (out_proj): Linear(in_features=512, out_features=512, bias=True)
        )
        (self_attn_layer_norm): FusedLayerNorm(torch.Size([512]), eps=1e-05, elementwise_affine=True)
        (encoder_attn): LearnableGlobalLocalMultiheadAttentionSelfAttention(
          (out_proj): Linear(in_features=512, out_features=512, bias=True)
        )
        (encoder_attn_layer_norm): FusedLayerNorm(torch.Size([512]), eps=1e-05, elementwise_affine=True)
        (fc1): Linear(in_features=512, out_features=2048, bias=True)
        (fc2): Linear(in_features=2048, out_features=512, bias=True)
        (final_layer_norm): FusedLayerNorm(torch.Size([512]), eps=1e-05, elementwise_affine=True)
      )
      (4): LearnableGlobalLocalTransformerDecoderLayer(
        (self_attn): LearnableGlobalLocalMultiheadAttentionDecoder(
          (out_proj): Linear(in_features=512, out_features=512, bias=True)
        )
        (self_attn_layer_norm): FusedLayerNorm(torch.Size([512]), eps=1e-05, elementwise_affine=True)
        (encoder_attn): LearnableGlobalLocalMultiheadAttentionSelfAttention(
          (out_proj): Linear(in_features=512, out_features=512, bias=True)
        )
        (encoder_attn_layer_norm): FusedLayerNorm(torch.Size([512]), eps=1e-05, elementwise_affine=True)
        (fc1): Linear(in_features=512, out_features=2048, bias=True)
        (fc2): Linear(in_features=2048, out_features=512, bias=True)
        (final_layer_norm): FusedLayerNorm(torch.Size([512]), eps=1e-05, elementwise_affine=True)
      )
      (5): LearnableGlobalLocalTransformerDecoderLayer(
        (self_attn): LearnableGlobalLocalMultiheadAttentionDecoder(
          (out_proj): Linear(in_features=512, out_features=512, bias=True)
        )
        (self_attn_layer_norm): FusedLayerNorm(torch.Size([512]), eps=1e-05, elementwise_affine=True)
        (encoder_attn): LearnableGlobalLocalMultiheadAttentionSelfAttention(
          (out_proj): Linear(in_features=512, out_features=512, bias=True)
        )
        (encoder_attn_layer_norm): FusedLayerNorm(torch.Size([512]), eps=1e-05, elementwise_affine=True)
        (fc1): Linear(in_features=512, out_features=2048, bias=True)
        (fc2): Linear(in_features=2048, out_features=512, bias=True)
        (final_layer_norm): FusedLayerNorm(torch.Size([512]), eps=1e-05, elementwise_affine=True)
      )
    )
  )
)
| model lgl_globallocal_all_wmt_en_de, criterion LabelSmoothedCrossEntropyCriterion
| num. model params: 89282560 (num. trained: 89282560)
| training on 1 GPUs
| max tokens per GPU = 4096 and max sentences per GPU = None
| no existing checkpoint found /thomas/Projects/nmt/train_fairseq_v2/translate_ende_wmt16_bpe32k/lgl_globallocal_all_wmt_en_de-b4096-gpu1-upfre8-1fp16-id1/checkpoint_last.pt
…
